Fraud_Dectection_model.pth (torch, 13342 bytes, 5 tensors)

fc1.weight f4 [64, 7]
000000 b1 a9 88 3d 2e 80 10 be 36 b0 b1 be 11 ab c1 bc
       0.06672991 -0.14111397 -0.3470475 -0.023641141
000010 28 e9 f0 bd 62 cb 56 3e 7b 5f ac 3e ff a1 a6 3e
       -0.11763221 0.20976022 0.33666596 0.32545468
000020 31 e0 a5 be 86 25 b3 be 3a 1b 6c be 00 8e 92 bd
       -0.32397607 -0.34989566 -0.23057261 -0.071559906
000030 d8 2e 5d be 34 74 b7 be b3 81 31 be b0 ca b0 3e
       -0.215999 -0.35830843 -0.17334633 0.34529638
000040 f7 ad ba bd 0e 05 81 be 0a 39 7c 3e 35 f8 95 3e
       -0.091152124 -0.2519917 0.24631134 0.2929093
000050 a4 59 7e be 08 7e 8e be b1 6e a9 be e2 39 a9 3d
       -0.24838883 -0.2783053 -0.33092263 0.082629934
000060 2a bc 52 be e5 e1 42 be fb a8 10 be 5a 36 54 bd
       -0.20579591 -0.19031484 -0.14126961 -0.051809646
000070 8c db 05 3e 97 8a 70 3e e6 79 2a be fc 2d 86 3e
       0.13072032 0.23490368 -0.16648063 0.26206958
000080 ab f5 4b be 58 c1 15 be bd 6c 97 bc d8 9e 64 be
       -0.19917934 -0.14624536 -0.018484468 -0.22326219
000090 82 68 98 3e 32 ae 86 3e c7 1a 33 be 0e 8f 98 3e
       0.29767233 0.26304775 -0.17490683 0.29796642
0000a0 f2 3e 67 3e 72 08 77 3e e0 fb a0 3e 17 e8 15 3e
       0.22582605 0.24124315 0.31442165 0.14639316
0000b0 09 0e 99 be d0 ee 9b 3e bf e1 d4 3e 71 07 af be
       -0.2989352 0.30455637 0.4157848 -0.34185365
0000c0 83 2f 19 be c5 07 5d 3d 4e 4f a5 3d d3 78 4e be
       -0.1495953 0.053962488 0.08071767 -0.20163278
0000d0 b5 62 02 be 4a e1 99 3e f9 eb 2c be 4c 28 10 3b
       -0.12732966 0.30054694 -0.16886891 0.0021996675
0000e0 6d a0 00 3e 25 29 1e 3e e0 21 93 3d 69 8b 47 be
       0.12561198 0.15445383 0.071841955 -0.19486775
0000f0 32 bb 54 be 82 16 c8 bd 3a 48 de 3d 00 e1 1c be
       -0.20774534 -0.09769918 0.1085362 -0.15320206
000100 32 05 0a 3e 09 95 18 3e 46 39 c9 be f0 fa 1e 3e
       0.13478544 0.14900602 -0.3930151 0.15525413
000110 61 6f 74 be 8c 9d 6e 3e 42 a4 1f bd 09 ec 63 3e
       -0.23870613 0.23302287 -0.038975008 0.22258009
000120 7a e7 9d 3e e1 b3 4a 3c 01 03 a5 be 69 fe b0 3e
       0.30840665 0.012371988 -0.32228854 0.345691
000130 17 d6 a2 3e 4c 10 79 bc 5b 25 96 3d bc 05 23 3d
       0.31803963 -0.015201639 0.07331344 0.03980039
000140 01 31 db 3d c3 c9 25 3e 4f a0 29 3e 23 0e 4c 3e
       0.10702706 0.16190247 0.16565059 0.19927268
000150 95 53 c6 be 7e a3 df bd 3b d4 3b be e0 f4 3f bc
       -0.38735643 -0.109198555 -0.18342678 -0.011716098
000160 0c ff 05 be 5f 47 3c be d6 3c 3c bc 23 1d b1 3e
       -0.13085574 -0.18386601 -0.011489114 0.34592542
000170 61 7b 18 be 00 b0 f9 b9 60 bd 8f bd a2 3e 2f be
       -0.14890815 -0.0004762411 -0.07018542 -0.17113736
000180 d5 be 88 be d2 62 94 be 78 6e 77 3d c9 a8 88 bd
       -0.26708093 -0.28981644 0.060408086 -0.06672818
000190 6c 6e ad 3e 99 be aa 3e e7 ea ef bd 29 0a 51 3d
       0.33873308 0.3334854 -0.11714726 0.05103508
0001a0 13 73 c4 be 08 f7 80 be ba b8 d2 bc 9a f2 94 3e
       -0.38369045 -0.2518847 -0.02572285 0.2909134
0001b0 48 7b d5 3e a0 76 c3 bd 1e 0b 5f 3e fb bb 52 be
       0.4169562 -0.0954411 0.21781585 -0.20579521
0001c0 b2 6a a5 3e 4d 98 94 be 7d 96 98 3d 05 13 33 3d
       0.32307965 -0.29022446 0.07450578 0.04371931
0001d0 92 86 b4 3e ef 67 61 3e 51 14 94 bd b2 f4 79 3e
       0.3525892 0.22012304 -0.072304375 0.2440975
0001e0 93 90 b8 be e0 a6 62 be 9a d1 bc be 7f 1f ca 3e
       -0.360478 -0.2213397 -0.36878663 0.39477155
0001f0 5e bd d7 3e 4f 61 e9 3c 55 db 1b 3e b2 18 91 be
       0.42136663 0.028488783 0.15220387 -0.28339154
000200 c2 df 3c 3e a4 c2 d5 3e 16 49 44 3e 88 9f 15 3d
       0.18444732 0.41750062 0.19168505 0.036529094
000210 c5 8c 80 be c1 58 7a be 82 43 01 3d f9 b7 e0 3d
       -0.251074 -0.2444792 0.03155852 0.1097259
000220 fc ee 37 3e 03 db 48 3e 94 c4 02 be a8 4d 07 3e
       0.17962259 0.19614796 -0.12770301 0.13213217
000230 0e ff c6 be 05 9b 60 be c4 0e 1b 3e f9 fb 6e 3e
       -0.38866466 -0.21934135 0.15142351 0.23338307
000240 7c 24 a0 be ce e3 b9 be 75 29 a0 bd a1 a7 cf 3e
       -0.31277835 -0.36306614 -0.07820407 0.40557578
000250 2e c3 dd be 8f 20 a9 be 72 a9 92 be 19 83 90 be
       -0.43312973 -0.33032653 -0.28644902 -0.2822502
000260 5d 92 1d bd 6c 38 3c 3e 1d 8b 19 bd 3a be 9f 3e
       -0.03846966 0.18380898 -0.037486184 0.3119982
000270 53 87 b7 3c bf d8 aa be df b5 ab 3e 9c f5 b2 bd
       0.022403395 -0.3336849 0.33537194 -0.087382525
000280 66 65 9b 3e cc bb 1c 3e 15 b8 38 3e fa 37 86 be
       0.30350798 0.15306014 0.18038972 -0.26214582
000290 9e 0b 91 3e d4 6c 91 3e 4a b0 77 3e e6 e0 78 3e
       0.28329176 0.28403342 0.24188343 0.24304542
0002a0 19 5e 12 3e 1d d8 9c be 50 44 47 bd e3 27 84 3e
       0.14293708 -0.3063363 -0.048649132 0.2581168
0002b0 83 58 94 3e 62 55 9b be 31 6d ab 3d 2c 6c cf bb
       0.2897378 -0.3033858 0.08370436 -0.0063300338
0002c0 4c 37 29 3e 2d 3a 21 3e c9 90 87 3e f1 ab 14 bd
       0.16525 0.15744849 0.2647765 -0.03629679
0002d0 c3 0c a0 be de 14 b4 bd aa 96 9e be 36 19 5d be
       -0.31259736 -0.087930426 -0.30974323 -0.21591648
0002e0 34 47 bf 3e 0a 8d 59 3e 75 b6 b7 bc ed 29 26 be
       0.3735901 0.21245208 -0.02242587 -0.16226931
0002f0 55 ce 8e 3d 63 ad d8 3e 50 68 a6 3e fb fc 3b bd
       0.069729485 0.42319784 0.3250146 -0.045895558
000300 08 48 54 3e c1 c1 92 3e ed b6 93 be 1d d8 2d 3e
       0.20730603 0.28663447 -0.288505 0.16976972
000310 86 3f 70 3e b6 de d9 be e9 62 16 be 27 ab 8b bd
       0.23461732 -0.42552727 -0.14686169 -0.06819754
000320 63 4a 55 be d4 04 ea 3d 47 a3 32 be 4c 73 3e 3e
       -0.20829158 0.11426702 -0.17445098 0.1859867
000330 b2 d0 54 3e fd 18 b2 3d e0 cb ef 3c f7 51 24 3e
       0.20782736 0.086961724 0.02927202 0.16046892
000340 16 e2 78 be 77 7b 87 bd 4b 91 5d be 04 6b 55 be
       -0.24304995 -0.06615346 -0.21637456 -0.20841604
000350 1a e3 05 3e 7e a5 5d bd e4 9b 1d 3d ba 01 99 3e
       0.13074914 -0.054112904 0.038478747 0.2988413
000360 65 5f 86 3e 8b 2f ec be 07 26 35 3e 95 26 de 3d
       0.26244655 -0.46130022 0.17690288 0.10847203
000370 29 29 ac be 1d 79 dc 3e 83 63 42 3d 7a b6 92 bd
       -0.33625153 0.43061152 0.047458183 -0.07163711
000380 d4 8b 6e 3d fb ab 00 3d a8 6a 2e be 0d ab 01 3d
       0.05823882 0.031414013 -0.17032874 0.031657267
000390 5d 34 92 3d 82 25 3d 3c 61 a8 74 3e 7b 06 a3 be
       0.07138894 0.011544587 0.23892356 -0.31840882
0003a0 b3 7d bd 3e ce 5a 7a be 31 d9 51 3e 59 c9 0a bd
       0.37009963 -0.24448702 0.20493008 -0.033883426
0003b0 f4 e1 a8 be 5d e1 7b be 04 00 42 bb 61 2b 3e be
       -0.3298489 -0.24597688 -0.002960206 -0.18571235
0003c0 58 90 f2 3e fc c7 ce be 80 f4 96 be eb ec fd 3d
       0.4737575 -0.4038695 -0.29483414 0.12398704
0003d0 4d a4 67 bd 0e b4 8e be d0 21 93 bd 66 df 36 bd
       -0.056553174 -0.27871746 -0.071841836 -0.044646643
0003e0 d5 55 e9 3e f3 ce d7 3c 82 46 39 be a9 3f b1 be
       0.45573297 0.026343798 -0.18093303 -0.3461888
0003f0 75 e5 cb bd f3 bd d2 bc 87 09 94 3e c2 b3 a3 3e
       -0.09955875 -0.02572534 0.2891352 0.31973082

fc1.bias f4 [64]
000000 2c 4f 04 3e a2 59 4c 3e 5f 61 47 3e 0e d4 e2 bd
       0.12920827 0.19956067 0.19470738 -0.110756025
000010 96 62 8e 3b 50 b9 9c be 91 e7 0e bd cd fa 8f 3e
       0.0043452485 -0.30610132 -0.034888808 0.28121033
000020 10 82 ad be 0c f3 4a bd a0 e3 51 3d 71 6e 08 be
       -0.33888292 -0.049548194 0.05124247 -0.1332338
000030 7b bf f0 3d 80 65 f5 bc 93 0d 2a be 9d 6c 26 be
       0.11755272 -0.029955626 -0.1660674 -0.1625237
000040 50 be ac be 56 f7 b5 bd 2e d9 dc 3e 24 d6 95 3e
       -0.33738947 -0.08885066 0.43134445 0.2926494
000050 01 a9 9c 3e 2c 71 47 3e 66 67 ad be ef 1b 11 bd
       0.3059769 0.19476765 -0.3386795 -0.03542703
000060 0b 42 67 be 0d e3 5d 3e 81 85 95 be 80 79 67 3e
       -0.22583787 0.21668644 -0.29203418 0.22604942
000070 a3 5e 0a 3d ca 20 44 be 7f 83 4a 3e 73 bc 5e be
       0.03378166 -0.19153133 0.19776724 -0.21751575
000080 e8 4e a4 3e 73 ef 04 3e b3 b5 fa bd a4 b9 22 be
       0.3209145 0.12981968 -0.122416876 -0.15891129
000090 f6 08 6d 3d 57 b3 97 3c 1e 9d 78 3e 59 2e 23 bd
       0.057869874 0.018518133 0.24278685 -0.039839122
0000a0 ac 81 23 bd ee cf 89 be 6e b2 9f 3e 56 9d 96 3e
       -0.039918587 -0.2691645 0.3119082 0.29416913
0000b0 2a cc 3e be f1 c4 e0 3e 8e e1 3f 3d dd 93 b4 3d
       -0.1863257 0.43900254 0.046845965 0.08817265
0000c0 8c 2c ab 3e ac 12 8b be 60 42 1f be a1 b0 5a 3e
       0.33432424 -0.27162683 -0.15552664 0.21356441
0000d0 c3 21 a1 bd d9 2f d2 bd ed c5 fa 3d 61 38 b9 bd
       -0.07867768 -0.102630325 0.122447826 -0.090439565
0000e0 63 e8 8a 3e 45 74 c2 3e 50 8c 01 3d 3e 93 aa 3c
       0.27130422 0.37979332 0.031627953 0.020822164
0000f0 94 20 a4 3d 2a 35 8a 3d 26 eb a7 3e 5f 60 52 be
       0.08014026 0.067484215 0.32796592 -0.20544575

fc2.weight f4 [32, 64]
000000 62 dd 8c 3d c8 7a 40 bd 88 06 b7 bb b2 7e f1 bb
       0.06878163 -0.046992093 -0.0055854954 -0.0073698396
000010 88 50 8f 3c 65 52 8a bd b0 0d a5 3c 8c 39 ef 3d
       0.017494455 -0.06753997 0.020148128 0.11680898
000020 a8 dc 12 be eb 48 90 3d ec 95 a4 3d 59 5c 12 bb
       -0.14341986 0.07045158 0.08036408 -0.0022332876
000030 02 da ac 3c fa 6a 9a bd 4f 66 15 3c 4b c9 46 bd
       0.021100048 -0.075399354 0.009118631 -0.04853181
000040 1e dd f5 bd a9 58 4e bd fe 4c 10 be 3d 4a a3 bc
       -0.120050654 -0.05037752 -0.1409187 -0.01993286
000050 8c 2e 46 bd 58 79 22 be 0d 94 59 bd bd fd 9b bd
       -0.048384234 -0.15866601 -0.053119708 -0.07616756
000060 1e 7f b1 bd 00 ee 95 bc ee 26 ea 3c 30 38 c5 3d
       -0.08666824 -0.018301964 0.028583016 0.096298575
000070 ac d5 ab 3c 5e 37 c8 bd fa a9 6b 3d a1 f3 a4 3d
       0.02097591 -0.097761855 0.05753515 0.08054281
000080 72 22 90 bc 18 89 c8 bd 58 5b 17 be f4 7e d3 bd
       -0.01759455 -0.097917736 -0.14780939 -0.10326949
000090 de 14 ff bd 5c 9c 0a be c1 a0 a0 bd 85 9d f7 bc
       -0.12455152 -0.13536209 -0.078431614 -0.030226478
0000a0 65 02 28 be 60 2d e8 bd 44 92 74 bd f2 c3 e5 bd
       -0.16407163 -0.113367796 -0.059709802 -0.11219014
0000b0 84 40 88 bd ab 77 82 bd 82 f4 03 be b6 e5 9a bd
       -0.066529304 -0.06370481 -0.12886241 -0.07563345
0000c0 9f 25 ea bd ca c4 c0 bc 6e b8 90 bd 46 29 8b 3c
       -0.11432957 -0.023531336 -0.07066427 0.016987454
0000d0 63 8c 92 bd 2f 8f a3 bc c0 af cc bd fa 8b ca bd
       -0.07155683 -0.019965736 -0.09994459 -0.0988998
0000e0 ce c0 ee bd 8c bb c4 bd 67 34 1d be cf 16 8b bd
       -0.11657868 -0.09606084 -0.15352021 -0.0679146
0000f0 fa ed d3 3d e8 03 fb 3b 85 3b 89 bd c8 8e b3 bb
       0.10348125 0.007660378 -0.067008056 -0.0054796673
000100 90 39 76 3c d2 ec ef bd 44 b3 02 3e 65 76 e4 3d
       0.015028372 -0.11715092 0.12763697 0.111553945
000110 44 bf 10 3d dc 36 1f 3e 25 2a 83 3c ec 4b c9 bc
       0.035338655 0.15548271 0.016011307 -0.024572335
000120 48 f9 e5 bc f7 76 ad 3c 80 b4 6d 3d ac cd f2 ba
       -0.028072968 0.02117489 0.058033466 -0.001852443
000130 37 9f 9e bd 58 6c a7 bc 48 18 97 3c 34 f3 48 3d
       -0.077452116 -0.020437405 0.018444195 0.04906006
000140 bd 34 36 3e 0f 32 27 3e d4 fa 3b 3d c8 bf 20 bd
       0.17793556 0.1632769 0.045893505 -0.039245397
000150 be 25 2f 3e 84 87 f1 3d bc 0c 81 3d 91 f2 28 3e
       0.17104241 0.11793426 0.06301257 0.16498782
000160 b6 14 33 3d 0c 9e 39 3e 3a 49 f5 3d 3a 03 11 3e
       0.043720923 0.18126696 0.119768575 0.14161387
000170 ef a0 36 3e f0 e0 18 bd 39 4e 81 bd c1 cd f8 3d
       0.17834829 -0.037323892 -0.06313748 0.121486194
000180 68 8e 95 bb 0a 1d 32 3b ce 89 53 3e d5 6a 72 3d
       -0.0045640953 0.0027177953 0.20658037 0.059183914
000190 8b 9c 3e bc e4 7d 1e 3d eb 34 34 3e 5c 98 39 3d
       -0.011634002 0.038694277 0.17598312 0.045311317
0001a0 46 4f be 3d d0 ff 57 3a 74 48 b8 3c 46 89 d8 3b
       0.09292464 0.0008239718 0.022495486 0.006608161
0001b0 12 76 92 bd 16 c1 d3 3d 03 d3 fd 3c b2 b0 46 bd
       -0.071514264 0.103395626 0.030984407 -0.048508354
0001c0 94 be 13 3e 83 75 11 3e 30 35 0b 3e d0 58 f1 3c
       0.14428169 0.14204983 0.13594508 0.029461294
0001d0 62 c6 bc 3d 6c 2c a6 bd 89 e4 67 bc f6 72 14 3d
       0.09217526 -0.081139416 -0.014153608 0.036242448
0001e0 61 f5 53 3d 28 f4 57 3d 48 69 1c bd 18 53 37 3d
       0.051747683 0.05272308 -0.03818634 0.04475698
0001f0 2f 27 1d 3d 1f 3a 05 3e 84 f1 00 3d 62 84 98 3c
       0.038367447 0.13010453 0.031480327 0.018617813
000200 6d 39 ac bc e8 6c af bd 93 be 5c 3d 7f 3e d6 3d
       -0.021023476 -0.08565694 0.053892683 0.10461139
000210 60 10 87 39 af 3b 2c 3e eb e4 de 3c 75 ef b2 3d
       0.00025761407 0.16819642 0.027208766 0.08737079
000220 0a 80 f2 3c 22 da 0f bc 09 fb 14 3d 6c ef a1 3d
       0.02960207 -0.008780034 0.03637222 0.07906994
000230 07 e7 aa bd 70 8e f8 3c 1b c3 e7 3c df 2d aa 3d
       -0.08344846 0.030341357 0.028291276 0.083095305
000240 01 f5 09 3e 69 58 d7 3d c0 ef 68 3d 07 df 24 3e
       0.13472368 0.1051491 0.05686927 0.16100703
000250 52 81 d4 3d 45 f7 28 3d e3 00 b1 3d d6 3c 6a 3d
       0.103762284 0.04125144 0.08642747 0.057186924
000260 32 94 a2 3d 16 2b 17 bd d7 1f 5a 3d 0f b6 3b bd
       0.07938422 -0.036906324 0.05325302 -0.04582792
000270 f1 b9 e0 3d c5 57 94 3d 1c 2c 11 3e ee 81 1f 3d
       0.109729655 0.07243303 0.14176983 0.03894227
000280 37 ad 40 bd bc 41 0d 3e 07 3f f8 3d f2 34 83 3d
       -0.04704019 0.13794607 0.121213965 0.06406583
000290 61 28 0a 3e 93 43 59 3d f4 f5 a9 bb 5e 40 89 3d
       0.13491966 0.05304296 -0.0051867906 0.0670173
0002a0 b0 6f 2c 3d c4 5f 66 3c 92 6d 77 bd 02 c7 aa 3d
       0.0420987 0.014060918 -0.06040723 0.08338739
0002b0 08 78 8f 3d 45 d6 6d 3d 22 61 a0 3d a5 51 11 3e
       0.07005316 0.05806567 0.078310266 0.14191301
0002c0 94 ef 2c bd 1f da 98 bd a7 a7 cd 3d 56 f4 8c 3c
       -0.042220667 -0.07463478 0.10041743 0.017206352
0002d0 b4 ac a0 bc 31 0a 47 bd 56 67 70 bb 9c 15 4f 3c
       -0.019613601 -0.048593704 -0.0036682687 0.012639429
0002e0 3f 53 1e 3e 01 5b 8f 3d 2a 76 34 3d 08 a5 15 ba
       0.15461443 0.069997795 0.044058003 -0.00057084905
0002f0 40 6e ab 3c 3e 35 23 bd 22 4c ea bc f0 f0 07 3d
       0.020926595 -0.039845698 -0.028600756 0.03318876
000300 59 3a 4e bd 88 31 c9 3c 46 bb 0b 3e e4 8c fc 3d
       -0.050348613 0.024559751 0.13645658 0.1233156
000310 b4 02 32 3d 4c a9 a6 bd ec 27 e8 3d e7 15 09 3e
       0.04345961 -0.081377596 0.113357395 0.13387261
000320 78 30 e2 bd ae 3b b7 3d a8 fc 8c bc 42 a1 52 bd
       -0.11044401 0.0894693 -0.01721032 -0.05142332
000330 f4 86 e9 3d d0 ed 26 3c f8 f5 7e 3d 95 31 ce 3d
       0.114026934 0.010188535 0.062246293 0.10068051
000340 7c a3 50 bd fb 99 38 3e a8 b0 48 3e bc a3 23 3d
       -0.05093716 0.18027489 0.19598639 0.03995107
000350 5f 72 05 3d 75 60 82 bd 07 b6 4f 3d 26 72 78 bd
       0.032579776 -0.06366054 0.050710704 -0.060655735
000360 ef 46 3c bd 81 e4 8f 3d 94 8b 57 bd 36 c7 54 bd
       -0.045966085 0.070260055 -0.052623346 -0.051947795
000370 0c 4f 02 3e ac df 41 3d e5 f6 aa 3b ca db 1a 3e
       0.12725466 0.04733245 0.0052174204 0.15122905
000380 e0 77 a1 bd 3c 38 00 3e c6 a2 1c 3d ab ab 2a 3e
       -0.078841925 0.12521452 0.03824117 0.16667049
000390 3a f4 25 3d 01 9e 82 bd ea d0 44 3d c9 45 0e bd
       0.040516116 -0.06377793 0.0480508 -0.03473452
0003a0 bc 43 73 3d 08 31 c9 bc 7c 3d 27 bd 86 2f 4d 3d
       0.05939077 -0.024559513 -0.04083012 0.05009415
0003b0 d5 0f a8 3d d6 48 51 3e b6 fe 21 3d cf 58 92 3d
       0.08206145 0.20437941 0.039549552 0.07145845
0003c0 89 ef b9 bd 1d 3c 0f be bc d6 cf 3d f1 fc 56 3e
       -0.09078891 -0.13987775 0.10148379 0.20994927
0003d0 e7 0e 1b 3d 1e 23 ed 3c 38 a7 88 3c 58 46 1b bb
       0.03785601 0.02894741 0.016681299 -0.0023693051
0003e0 dd 78 06 bd 0b 62 2a 3e 16 85 f9 bc 34 ca ce 3d
       -0.032830108 0.16638963 -0.030458968 0.10097161
0003f0 db f0 66 3d ae d6 95 bd 12 bb a5 bb e0 15 1e 3e
       0.05638204 -0.073163375 -0.005057701 0.15438032

fc2.bias f4 [32]
000000 bf 02 21 be 04 6f 27 3e 86 23 51 3c 8d 74 53 bc
       -0.15723704 0.16350943 0.012764817 -0.012906206
000010 ed 99 9c 3c e1 a4 15 3b 36 16 93 3b e8 b9 27 3d
       0.019116366 0.0022833871 0.0044887317 0.04094878
000020 50 6e 09 3e 22 12 08 3d 3f ff 35 3e 54 17 ab 3d
       0.13420987 0.033220418 0.1777315 0.08354059
000030 3c 5d 1a 3d 10 85 33 3c de a1 43 bd 32 a0 d5 3c
       0.03768657 0.010957018 -0.04776179 0.026077364
000040 e1 be 12 bb ee 39 27 3d dc 61 f8 3c 8d ce 05 3e
       -0.0022391605 0.04082673 0.0303201 0.13067074
000050 88 a9 15 3c 40 f4 4b bc be a2 ef bd 06 83 2e bd
       0.009134658 -0.01244837 -0.117009625 -0.042605422
000060 a3 c0 08 be 58 a4 b6 bd 4b 2b 10 3d 93 65 d4 3c
       -0.13354735 -0.08918065 0.035197537 0.02592734
000070 c9 cf 5e bd db 36 29 bd 76 a0 77 bd 7b 20 94 3c
       -0.054397378 -0.04131208 -0.06045576 0.018081894

fc3.weight f4 [1, 32]
000000 74 93 81 3d fc d8 ce bd cd 07 57 be fc b8 ce bd
       0.063269526 -0.1009998 -0.2099907 -0.10093877
000010 6a b0 00 bd a1 a5 7c 3d c3 44 c0 3d 28 93 54 3d
       -0.03141824 0.061681394 0.09388115 0.05189815
000020 cd fc 02 be 5d c4 a8 bd 36 24 53 be 6a 08 5c be
       -0.12791748 -0.08240578 -0.20619282 -0.21487585
000030 78 0f b8 3b 4a c3 5d be 48 17 98 bc f6 9e 32 be
       0.0056170784 -0.21656528 -0.018565789 -0.17443451
000040 aa 4c 25 bc 28 4b 60 bd 09 24 e0 3d bb 6c c0 bd
       -0.010089079 -0.054759175 0.10944373 -0.09395739
000050 ea 71 b1 3c 53 52 25 3e 30 fa 0a 3d 57 4a df bb
       0.021660764 0.16144685 0.033930004 -0.006814282
000060 7a 36 35 3d 34 9d 19 be d1 72 0d be 07 3a 20 3c
       0.044241406 -0.15001374 -0.1381333 0.00977946
000070 ce d3 04 be d3 52 ff bd b7 10 54 3d 9f c2 9c bd
       -0.12971422 -0.12466969 0.051773753 -0.076543085
